Model: "sequential"
+--------------------------------------------------------------------------+
| Layer (type)                    | Output Shape           |       Param # |
|---------------------------------+------------------------+---------------|
| block1_conv1 (Conv2D)           | (None, 224, 224, 64)   |         1,792 |
|---------------------------------+------------------------+---------------|
| block1_conv2 (Conv2D)           | (None, 224, 224, 64)   |        36,928 |
|---------------------------------+------------------------+---------------|
| block1_pool (MaxPooling2D)      | (None, 112, 112, 64)   |             0 |
|---------------------------------+------------------------+---------------|
| block2_conv1 (Conv2D)           | (None, 112, 112, 128)  |        73,856 |
|---------------------------------+------------------------+---------------|
| block2_conv2 (Conv2D)           | (None, 112, 112, 128)  |       147,584 |
|---------------------------------+------------------------+---------------|
| block2_pool (MaxPooling2D)      | (None, 56, 56, 128)    |             0 |
|---------------------------------+------------------------+---------------|
| block3_conv1 (Conv2D)           | (None, 56, 56, 256)    |       295,168 |
|---------------------------------+------------------------+---------------|
| block3_conv2 (Conv2D)           | (None, 56, 56, 256)    |       590,080 |
|---------------------------------+------------------------+---------------|
| block3_conv3 (Conv2D)           | (None, 56, 56, 256)    |       590,080 |
|---------------------------------+------------------------+---------------|
| block3_conv4 (Conv2D)           | (None, 56, 56, 256)    |       590,080 |
|---------------------------------+------------------------+---------------|
| block3_pool (MaxPooling2D)      | (None, 28, 28, 256)    |             0 |
|---------------------------------+------------------------+---------------|
| block4_conv1 (Conv2D)           | (None, 28, 28, 512)    |     1,180,160 |
|---------------------------------+------------------------+---------------|
| block4_conv2 (Conv2D)           | (None, 28, 28, 512)    |     2,359,808 |
|---------------------------------+------------------------+---------------|
| block4_conv3 (Conv2D)           | (None, 28, 28, 512)    |     2,359,808 |
|---------------------------------+------------------------+---------------|
| block4_conv4 (Conv2D)           | (None, 28, 28, 512)    |     2,359,808 |
|---------------------------------+------------------------+---------------|
| block4_pool (MaxPooling2D)      | (None, 14, 14, 512)    |             0 |
|---------------------------------+------------------------+---------------|
| block5_conv1 (Conv2D)           | (None, 14, 14, 512)    |     2,359,808 |
|---------------------------------+------------------------+---------------|
| block5_conv2 (Conv2D)           | (None, 14, 14, 512)    |     2,359,808 |
|---------------------------------+------------------------+---------------|
| block5_conv3 (Conv2D)           | (None, 14, 14, 512)    |     2,359,808 |
|---------------------------------+------------------------+---------------|
| block5_conv4 (Conv2D)           | (None, 14, 14, 512)    |     2,359,808 |
|---------------------------------+------------------------+---------------|
| block5_pool (MaxPooling2D)      | (None, 7, 7, 512)      |             0 |
|---------------------------------+------------------------+---------------|
| batch_normalization             | (None, 7, 7, 512)      |         2,048 |
| (BatchNormalization)            |                        |               |
|---------------------------------+------------------------+---------------|
| dropout (Dropout)               | (None, 7, 7, 512)      |             0 |
|---------------------------------+------------------------+---------------|
| dense (Dense)                   | (None, 7, 7, 13589)    |     6,971,157 |
+--------------------------------------------------------------------------+
 Total params: 26,997,589 (102.99 MB)
 Trainable params: 26,996,565 (102.98 MB)
 Non-trainable params: 1,024 (4.00 KB)

